models/CartPole-v1_dqn.pth (torch, 71959 bytes, 6 tensors)

layer1.weight f4 [128, 4]
00000000: 2502 3fbe 7b25 0cbe 2122 75bd 24b5 953e
00000010: 8508 033f 8cd2 1d3e 85ba 43be 4118 8d3c
00000020: 476f a2be ea68 843e 9728 263f 71ff 51bd
00000030: 5b54 78be 3e4a c3bd e2a3 d73d bd01 bd3e
00000040: 369c 1bbe 152b 9d3e 4565 99be 965d 71be
00000050: 5371 da3e 8727 e83e 50db 713f 0f21 b33e
00000060: 7286 cb3e 3dc5 a2be 397a 8a3e 44a0 f5bd
00000070: 529e 5c3e ffa9 ddbd ef0b 553c c609 a93e
00000080: ec45 3b3f 3c4b c23e 76fe a83e 8f1c 3b3e
00000090: 5bc1 023f f2e6 653d 71f2 cdbe f348 85be
000000a0: d57e 5abe f523 9d3d ffaf 333f eca8 cabe
000000b0: 9955 d23d 346f a63e 0086 03be 949e 39be
000000c0: 3f43 673e 3616 36be 75ff 0ebf 8895 a13e
000000d0: 0a6f 39bc 3f25 babe c180 e73e 9d02 8c3d
000000e0: 4d31 2cbf 5100 bcbe e99d 01bf b6f9 033e
000000f0: ec0b 003e 3478 94be 37c4 643e 0dc2 643e
00000100: 0c86 cc3e c875 ac3d 09aa 203f 17ef 12be
00000110: 13c3 163f 1152 b23e 9065 a7bd 1067 9d3d
00000120: 748a 173d dcd5 c3bd 46cc e33e 66cc 933e
00000130: 0cea b4be f2b0 aa3e 7eb2 c83e 40af b43e
00000140: c7c2 a1be 182b 69be a882 293d 87a4 6ebe
00000150: b5f1 ea3e 828f 973e cb92 cc3e f393 3a3d
00000160: 0b20 293f 8173 3a3e 24a3 abbe 1a50 e83c
00000170: ae3c 133f d1d9 74be e96a 13bf 1b64 babe
00000180: f324 a8bd 13c6 1a3e 65c6 5c3d 8d02 813d
00000190: 9723 ca3e 4bfd 283f 5bb7 0f3f b269 ea3e
000001a0: 88a9 81bd 1ea5 d1be b142 f03c e14c ff3d
000001b0: aee1 a03e 1291 8d3e 752e 883f 718e 6b3e
000001c0: 5027 e6bd 99eb acbe 35ab a4be c147 863e
000001d0: a197 253f d83f 123f 5538 ff3e 0e5d 4cbe
000001e0: a179 173f 0be9 273f 8f69 c03e df55 e53e
000001f0: 6109 ad3c 876f e6be eb3b 383d 6adf 683e
00000200: e846 163f e542 b73e 35a1 b73d d70d e3be
00000210: 7499 8f3e 0270 a8be 6c0b e8be 9454 49bc
00000220: 01be f7bd 99c6 8abe 1974 973d 9d25 55bc
00000230: 7c30 77be 571c b8be 25c4 abbe 8603 6cbe
00000240: b00b 2d3f 3ccf 123f aa14 913f beae c93e
00000250: 4e02 e0be 309a 7f3e 5adf 7a3d fcbd 613d
00000260: fc9c aabe 879e 7fbe 8189 88bd c83d 73be
00000270: 8dd8 54be 6263 93bc b963 99bd 29de c7bd
00000280: f55e 9c3e 998d ec3e 3d73 853e 4a69 cebc
00000290: 08cd 47be 44b8 443e 3072 413e cb62 a83e
000002a0: 4d8e d73d 0b9f 4fbe 7984 23bd e999 ef3c
000002b0: b6e4 49be 6e6a 7a3e 74a2 67be 0b1a a83e
000002c0: 5ae0 17be 1433 41be 17b5 5dbe 74ab 91be
000002d0: ede5 023f 7282 dbbe 25d6 a9be 126b aabe
000002e0: 731e 65be b99f 9d3e ba39 d8be 6538 9fbd
000002f0: 6566 b43e 7475 743e c355 32bf f56d 1cbe
00000300: 2d00 d23e c616 c3be 60d8 d7be 9ee0 273e
00000310: bee6 653f 8dd3 333e e249 04bf 7b17 c1bd
00000320: d31a 6fbe f213 a3bd f725 613d 1639 9f3d
00000330: 293b 50be aef4 5c3e a633 a93e d48e 9b3c
00000340: 362a 15bf 67d2 d2be af70 54bd 5419 efbc
00000350: fb6d aabe e53c b1bd 4088 04be e720 26be
00000360: fbf2 20be 52ed 033e b74d 48bf b0ae 763e
00000370: 4f35 febe 409a 283d 50e9 a93e b2de 0cbe
00000380: bb05 bb3e 0279 913e cd52 bd3d 959e 8c3e
00000390: fe3e 963e c6d6 013f a1a7 513f 7fa3 dd3e
000003a0: 7626 ccbe a6b7 63bd 66cd 1a3e 1295 a4bd
000003b0: 371c 843e 578e 9fbe af90 123e 9a13 51be
000003c0: c423 623f 0253 003f fdba 543f c3ce ab3e
000003d0: bde3 9ebe 3025 fabe dbc9 003e b08b c53e
000003e0: cc89 9dbe deab e03d 1484 373f 7fe1 a5be
000003f0: 6bab a2bd e74a 113e 39fc 873d fa06 d1bd
-0.18653162 -0.13686173 -0.059847 0.29239762 0.51184875 0.15412349 -0.1911412 0.01722348
-0.31725523 0.25861293 0.64905685 -0.051269 -0.24250929 -0.09535645 0.10529305 0.3691539
-0.15196308 0.3069693 -0.29960075 -0.23570856 0.42664585 0.45342657 0.9447527 0.3498616
0.3975101 -0.31791106 0.27046373 -0.11993459 0.2154477 -0.1082344 0.0130033335 0.3301527
0.7315357 0.37948024 0.33006638 0.18272613 0.5107629 0.05612845 -0.4022403 -0.26032218
-0.21337445 0.07672874 0.70190424 -0.39582002 0.10270233 0.32506716 -0.12844086 -0.18126899
0.22584246 -0.1778191 -0.55858546 0.31559396 -0.011317978 -0.36356542 0.4521542 0.06836436
-0.6726273 -0.3671899 -0.50631577 0.12888226 0.12504548 -0.28997958 0.22340475 0.2233965
0.3994602 0.084209025 0.62759453 -0.14349018 0.5889141 0.34828237 -0.081736684 0.07685673
0.036997274 -0.09562275 0.44491786 0.2886688 -0.35334814 0.33338124 0.3919868 0.35289955
-0.31593916 -0.22770345 0.04138437 -0.2330495 0.45887533 0.29601675 0.39955744 0.04555125
0.6606452 0.18208124 -0.33522904 0.028358508 0.57514465 -0.23911215 -0.57585007 -0.364045
-0.082101725 0.15114622 0.05390014 0.06299315 0.39480278 0.66011494 0.56139153 0.45783764
-0.06331164 -0.40946287 0.029328676 0.12465835 0.3142218 0.27649742 1.0639178 0.23003556
-0.11237967 -0.33773497 -0.3216187 0.2622662 0.6468449 0.5712867 0.49847665 -0.19957373
0.59169966 0.6558997 0.37580535 0.44792077 0.021122636 -0.45006964 0.044979017 0.22741476
0.58701944 0.35793224 0.08966295 -0.44346496 0.28046763 -0.32897955 -0.45321214 -0.012288231
-0.12096787 -0.27104643 0.07395191 -0.013009456 -0.24139589 -0.35959122 -0.33548084 -0.23048219
0.6759596 0.57347465 1.1334431 0.3939113 -0.43751758 0.24961162 0.06124816 0.055112824
-0.33322895 -0.24962817 -0.06666852 -0.23754036 -0.20785733 -0.017991725 -0.07489724 -0.097591706
0.30541196 0.4620178 0.26064482 -0.02519669 -0.19511807 0.19210917 0.18891215 0.32887873
0.105251886 -0.20275514 -0.039921258 0.029248195 -0.19716153 0.24454662 -0.22620565 0.3283237
-0.14831677 -0.18867141 -0.21651112 -0.2845112 0.5113209 -0.4287296 -0.33171192 -0.33284813
-0.22374897 0.3078592 -0.42231542 -0.07774428 0.3523437 0.2387293 -0.6966211 -0.1527632
0.4101576 -0.38103312 -0.4215727 0.16394278 0.8980521 0.17561169 -0.51675236 -0.09428307
-0.23350076 -0.07962789 0.054967847 0.0777456 -0.20335068 0.21577713 0.33047217 0.018989004
-0.58267534 -0.4117615 -0.051865276 -0.029186882 -0.33287033 -0.08654193 -0.129426 -0.16223489
-0.1571769 0.128835 -0.78243583 0.24090075 -0.49650046 0.04116273 0.33185816 -0.13756827
0.3652781 0.28412634 0.092443086 0.27464738 0.29344934 0.50718343 0.81896406 0.432888
-0.39873093 -0.055595063 0.15117416 -0.080362454 0.25802776 -0.31163284 0.14313005 -0.20417634
0.88335824 0.5012666 0.8309782 0.33556184 -0.31033126 -0.48856497 0.12577002 0.38583136
-0.30769193 0.10970281 0.7168591 -0.32398602 -0.07942852 0.14188729 0.066399045 -0.10206409

layer1.bias f4 [128]
00000000: bd69 07bf d71e 863e 51c5 cd3e 35f4 bbbe
00000010: 2b9f 9fbe 510e a4bd 50df 093f d253 d1be
00000020: 5046 0cbe 1877 15be 53cc 253e f981 c7be
00000030: b19b 813e a2dc f8be e265 3abd fc0a d7be
00000040: 2e86 723e 0da8 ecbd 64ac a3be 5391 083f
00000050: 0de8 8abe 4eb4 f83e 23fa 993e e0d3 adbe
00000060: 8536 263f 78c8 c6bd 7509 ec3e 73dd 243e
00000070: d6ed ca3e faa2 d63d a87e fabd a404 693e
00000080: d3cf fbbe 8771 683e 1e3d 8e3e 834b ba3e
00000090: e5a8 d3bd c815 233f 0e3a fd3e 39b8 023f
000000a0: 0b39 3fbe 8855 303f bd96 e33e e215 193f
000000b0: aa9c abbe 6a2d 2f3f 4766 7bbe 01f2 b2be
000000c0: dfe5 153f ed92 61be e4a4 f73e 36a3 293f
000000d0: 825a efbd 6c3b 243f 4726 b73e 88af 953e
000000e0: 9e8b 223f 3806 b7bd 6e4a 1e3f 745f b63e
000000f0: 135b 07be 4c94 ea3e 686b 053f 85fe f73e
00000100: 7a41 fbbe 4060 bcbd b22b aabd e509 79bd
00000110: 04fc d2be dccb 75be 3555 b3be 2ebe 3e3d
00000120: da7f 1e3f b2f0 2d3f dea5 9ebe 87c9 0b3f
00000130: f36d 67bd 50e8 44bd 2d34 f83e 7b38 16bf
00000140: a894 6b3e 09e6 a7be 2ecb 19be ac65 3abe
00000150: d948 afbc 308a 4c3d 9f87 003f abe7 afbe
00000160: cd9d 0e3f 2b90 003f ab2f 26be 200d cc3e
00000170: 163b 263f 890a 303f 9c45 d93e 3f32 9ebe
00000180: 83aa e7be 2478 93be 8cf9 b5bd 1773 b23e
00000190: 5a75 febe 4098 9b3e 5c4a 91be ab45 06bf
000001a0: ad14 3a3f 72e2 033f 7b10 113d a40d be3e
000001b0: c667 bc3e 8350 2f3f ff6d 9cbe d6b6 da3e
000001c0: 9e65 fd3e 1ebd 663e a9a9 ec3e 8018 a3be
000001d0: 3142 9ebd 6b8d f63e 981e c0be 881a d93e
000001e0: 7207 363f 0011 98bc 96d5 d93e 2579 0f3f
000001f0: fa08 dc3e 3cd9 ab3e 6bb6 243f 4a2f de3e
-0.5289572 0.26195404 0.40189603 -0.36709753 -0.31176123 -0.08010543 0.5385637 -0.40884262
-0.13698697 -0.14596212 0.16191225 -0.3896635 0.25314096 -0.4860583 -0.04550732 -0.42000568
0.23683998 -0.11555491 -0.3196746 0.5334675 -0.27130166 0.48575062 0.30073652 -0.3395071
0.6492694 -0.09706205 0.46100965 0.16100101 0.3963458 0.10480304 -0.12231189 0.22755677
-0.49181995 0.22699557 0.27781004 0.36385736 -0.103349485 0.6370511 0.49458355 0.5106235
-0.18674104 0.6888051 0.44450942 0.59799016 -0.33517963 0.6842867 -0.24550734 -0.3495026
0.5855388 -0.22028704 0.4836799 0.66264665 -0.11687185 0.6415317 0.3577139 0.29235482
0.6349429 -0.08936733 0.6183232 0.356197 -0.13218336 0.45816267 0.52117014 0.4843637
-0.49073392 -0.09198046 -0.083091155 -0.06080045 -0.41207898 -0.24003547 -0.35025945 0.04656809
0.61913836 0.67945397 -0.30985922 0.5460438 -0.05650134 -0.048073113 0.48477307 -0.5867993
0.23005927 -0.3279269 -0.15018913 -0.18202847 -0.021397041 0.049936473 0.5020694 -0.34356436
0.55709535 0.5021998 -0.16229121 0.39853764 0.6493391 0.68766075 0.4243592 -0.3089771
-0.45247278 -0.28802598 -0.08885488 0.34853432 -0.49698907 0.30389595 -0.28377044 -0.52450055
0.726878 0.51517403 0.035416108 0.37119782 0.36797923 0.68482226 -0.3055267 0.42717618
0.4949159 0.2253308 0.4622319 -0.3185463 -0.07727469 0.48154768 -0.3752334 0.42403054
0.7110511 -0.018562794 0.42545766 0.56044227 0.429756 0.33564174 0.6434085 0.43395454

layer2.weight f4 [128, 128]
00000000: b745 52be de39 5e3e ffa9 5d3e 72e6 3ebd
00000010: 8bf2 6fbe 8d80 aabe f156 9a3e 34a3 ecbd
00000020: ac1e 46be a618 6bbd c857 4a3d 0f94 5dbe
00000030: 4df9 b03d 8e9d 94be dad8 5a3d 58b4 4bbd
00000040: c89c 1e3e 62e0 c6bd 61fd c1bd 961e 813e
00000050: fc63 22be 91c2 2d3e d3a8 993e eef6 58be
00000060: dd8b 843e 38b9 acbd c962 ed3d 1ad5 99be
00000070: 5d91 053e ed12 15bd 0a9a 2d3d 748f ef3c
00000080: 71e8 71bd 77cd 443e b07c 123e 075b 8f3e
00000090: a774 5d3e 195e 733e e500 773e 44e7 8a3e
000000a0: 1396 bbbd 2154 a23e a74f 4f3e f6d7 a43e
000000b0: dfa4 c2be f506 cf3e d70d 23be 1d4d 24be
000000c0: c9f0 7e3e acdf 5bbe 1e31 ac3e fe66 b23e
000000d0: f31a b4bc 2af0 843e f06e 993e 8232 723e
000000e0: f6ac 963e dcd7 46be 34a7 833e 8838 9c3e
000000f0: b720 e93d 71ae 203e 0bf2 9a3e 93e4 293e
00000100: f424 51be c41d a7be dcd3 c8be 794c 9b3d
00000110: 5239 34be 4f45 e5be 2d25 f8be cb2b b6be
00000120: 3d0c 0a3e 3fce 613e d9df 9ebe e34a 243e
00000130: 5655 6e3d d80f 29bd 651f 643e 957b 04be
00000140: c14c 723e 67fb 02bf 646a 61bd 79a4 c13c
00000150: 5f1b 833a 0b37 00be 9a66 743e af5a 8cbd
00000160: 9d38 5b3e 961c 323e 6043 05be 2bf1 7d3e
00000170: 71bc 923e ed76 a33e 38c6 a73e b9de b9be
00000180: 8307 39be f404 a9bd 654e 8abe 5f9b 8b3d
00000190: 0abd 0abe 4429 913e 2114 a0bd b2f1 82bd
000001a0: cb50 9e3e 63ad a53e 28c7 ce3c 6bb8 e33d
000001b0: dcbb 813e 4936 553e 29c8 943b 75af 913e
000001c0: d91f ae3e 5f1e 533e 7e95 943e f52b 7aba
000001d0: 55e9 e4bd 3f15 7d3e 7f13 0bbe 81fe 8f3e
000001e0: f748 853e 1056 893c e7d2 8d3e 08d2 813e
000001f0: d512 a23e eb3d f93d fe35 413e cc76 203e
00000200: 37fc 85be faa7 d6bd 186e ec3c c892 26be
00000210: 8c90 8a3c 08bd 86bd fc20 fd3d 4c57 debc
00000220: c985 d9bc a6ce 57bd 8223 863d 90ce a5bb
00000230: 2f33 063d 3a26 08be 1011 b4bd e7f4 94be
00000240: 8c92 95bd 21f4 13be b958 83be 6da5 7f3e
00000250: b3dc acbd 7608 babd 0a4a e5bd 2429 f5bd
00000260: 5e75 0b3d bb50 7abf cc16 f33d 56c1 d6be
00000270: e7c5 943d c5a1 c7bd 9189 36bf 21e5 653d
00000280: d370 6ebd d58f 083e da7e 4a3e 63c2 1e3e
00000290: 74ef afbe 64ff 0d3e b2fa a13d 157a 2e3e
000002a0: c397 80bc 13ff ac3d 356b 8e3d 7b4f 393c
000002b0: c00e 0dbe 2a4b 583d dd35 a2bd 8bcd b8bd
000002c0: 3d90 163e 8c60 09be cdfc c83d 80fc 153e
000002d0: 896a 8e3d 25a2 f43d d57a 80bd e1cd 083e
000002e0: cc20 01bc 62b0 91be e00c a13d 8ee4 073e
000002f0: a74d 45be 9aef 533e bd55 3a3e 986a 60bd
00000300: d7bf 25be 9ae0 babe 3588 12be 81f8 65bb
00000310: 357c edbd 0b7a 06bd f35f 6fbe d72e e2bd
00000320: f289 af3d c50d 063e 9075 8cbd cd89 c83b
00000330: c586 11bd e887 f73c 2825 aa3d 139d 21be
00000340: e2f6 553b 9a4c 62bd 3ceb a63b 07c9 2abe
00000350: 6c56 913c 2903 573d 4aab c83c 4652 89bd
00000360: 6b71 7b3c 2c94 473d aeb4 d73c 629a 8ebd
00000370: 3546 113e f5e8 f13c 56d2 db3d d5c2 3ebd
00000380: 01c6 02bd 8bbb f6bc 1741 bfbe 1dec bf3c
00000390: c11e 0fbd 1c71 dcbc 0ab6 c4bc a0e9 34bd
000003a0: 23c0 4d3d 8396 f33b 5c4d 9b3d 2e62 983c
000003b0: fc72 e7bc 09e9 5b3c 43d6 dcbd ef76 423e
000003c0: 8a5e e33d 4552 c6bd 2302 243e 0746 443d
000003d0: d82d 9ebd 21a5 163e ee90 96be 7b35 a23d
000003e0: a28d 183d dcae 4bbd ac48 7f3d ea2b 0d3e
000003f0: 5a87 0a3d 19b0 373d c426 0e3e 8d9c e03c
-0.20534407 0.21701762 0.2164688 -0.04660649 -0.23432367 -0.333012 0.30144456 -0.11554566
-0.19347638 -0.057396553 0.04940012 -0.21638511 0.086413 -0.29026455 0.053429462 -0.049732536
0.15489495 -0.097107664 -0.09472156 0.25218648 -0.15858454 0.16968752 0.30011615 -0.21187946
0.25887957 -0.08433765 0.115911074 -0.30045396 0.13043733 -0.036395002 0.04238323 0.029243208
-0.059059564 0.19219004 0.14305377 0.27999136 0.2162653 0.23766364 0.24121435 0.27129567
-0.09159484 0.3170481 0.20245229 0.32196015 -0.38016412 0.40434995 -0.15923248 -0.16045041
0.2489654 -0.21472043 0.33631223 0.34844202 -0.021985507 0.2596448 0.2996745 0.2365208
0.29428834 -0.19418281 0.25713503 0.3051188 0.11383193 0.15691544 0.3026279 0.165911
-0.20424253 -0.32639897 -0.39224136 0.075829454 -0.17599991 -0.4477944 -0.48465863 -0.35580286
0.13481231 0.22051333 -0.31030157 0.16044192 0.05818685 -0.041274875 0.22277601 -0.12937768
0.23662092 -0.5116486 -0.055033103 0.023637997 0.0010002664 -0.12520997 0.23867264 -0.06853234
0.21408315 0.17393717 -0.13013983 0.2479903 0.28659394 0.3192667 0.32768416 -0.36302736
-0.18069272 -0.08252898 -0.27012935 0.06816744 -0.13548675 0.28351796 -0.07816339 -0.06393756
0.30921015 0.32358846 0.02524145 0.11119159 0.25338638 0.2082149 0.0045404625 0.28454176
0.34008673 0.20617054 0.29020303 -0.0009543293 -0.11177317 0.24715136 -0.13581656 0.2812386
0.2603223 0.01676467 0.27699968 0.25355554 0.31654993 0.12170013 0.18868253 0.15670317
-0.26168987 -0.10481258 0.02886109 -0.1626693 0.016914628 -0.065790236 0.12359807 -0.027141236
-0.026553052 -0.05268731 0.06549741 -0.0050600246 0.032763656 -0.13295832 -0.08792317 -0.29093096
-0.07303342 -0.14448597 -0.25653628 0.24965449 -0.084405325 -0.09083645 -0.111957625 -0.119707376
0.034047477 -0.97779435 0.118695825 -0.4194438 0.072643094 -0.09747652 -0.7130366 0.056126717
-0.058213066 0.13336118 0.19774953 0.1550384 -0.34362376 0.13866955 0.079091445 0.17038758
-0.015697366 0.08447089 0.06954042 0.0113104535 -0.13775158 0.052806057 -0.0792043 -0.09023579
0.1470346 -0.13415736 0.09813843 0.14647102 0.06953914 0.11944989 -0.06273428 0.13359787
-0.007881355 -0.28454882 0.07863784 0.1327078 -0.19267903 0.2069687 0.18196769 -0.054789156
-0.16186462 -0.36499482 -0.14309771 -0.0035090747 -0.11595956 -0.032831233 -0.23376445 -0.1104409
0.08571233 0.1309119 -0.06858361 0.0061199428 -0.035528917 0.030216172 0.08307868 -0.15782575
0.0032648374 -0.055248834 0.00509396 -0.16678248 0.017741404 0.052493248 0.02449574 -0.067051455
0.015346865 0.048725292 0.026331272 -0.0696304 0.14186938 0.029530028 0.10733478 -0.046572525
-0.031927112 -0.030118724 -0.37354347 0.023428017 -0.03494144 -0.026909404 -0.024012584 -0.044168115
0.050232064 0.007433714 0.075831145 0.018601503 -0.028253071 0.013422259 -0.10783055 0.18990682
0.11102016 -0.096836604 0.1601644 0.047918346 -0.07723588 0.14711429 -0.29407448 0.07920357
0.037244447 -0.049727306 0.062325165 0.13786283 0.033820488 0.044845674 0.13881975 0.0274184

layer2.bias f4 [128]
00000000: 07db 863e 4130 f93d a0a0 8b3d 708b 1bbe
00000010: 857e 853c ed77 523e e1b2 4bbc 51e5 71bc
00000020: 3ebd 5cbc e2c5 613d 8660 853e eb4d 963e
00000030: 1aa7 f73c 3219 b2bd 752e 1dbd dd33 a23d
00000040: 725b 8f3e c34a bfbc e875 cebd d289 7c3e
00000050: 36b2 523e 7648 5a3d 4690 0ebe 5835 963e
00000060: 72fa 893d 3c15 803e f077 fdbc b29a 1cbd
00000070: 2291 923e 9c2c 943e dd80 043d 7b40 8ebd
00000080: 6d0e f5bc 59a0 b63e a78d c8bc 50d1 9abd
00000090: de23 473d 9ac2 c4bc f08a 753e 5833 753c
000000a0: 1306 a73e 0ae3 0b3c a5a0 c63d 0753 7bbc
000000b0: 433f 933d ca92 603d c688 88bd 857f 8fbd
000000c0: 72e7 f23c dcc5 9f3e e1ce 913d c2cd 6b3e
000000d0: 5adf 5a3e 0718 05bd 8522 3d3d 13c0 b13e
000000e0: 176c 97bd 7cfc b63c cbb3 623d 2419 9abd
000000f0: 3adb ebbc 3e1c dd3c 7409 3fbd 085a cfba
00000100: 313c 003e 90c6 7ebc 986c ba3e bfc0 c4bd
00000110: 3422 7d3e c547 12bd 8ac2 ca3e d0cb 1cbe
00000120: 3dfc f7bb 22c8 7c3e ad27 2dbd 2033 a43e
00000130: e0c8 993e 5570 8b3d a191 eabd d29f 37bd
00000140: 2778 f3bd 29d4 07bb 7004 733d 23d9 b33d
00000150: 25b3 f23b 7764 943e 0e94 373e e8e9 55bd
00000160: 65a8 b4bd 87fe 9cbd 10fb 8c3c 4b0e 0cbd
00000170: 97fa 523c fbc7 1e3e a996 96bd ead8 f4bb
00000180: 2a11 9a3d dff4 c83d eda3 86bc 87cd 913e
00000190: 6c32 8f3e b856 04bc a36c 4ebb 635e 91bd
000001a0: 73ac a63c 46ba 123d 3f5a 183d ca68 d1bc
000001b0: 157d 623e 5f80 8e3e af84 92bd 083e d0bc
000001c0: 80d3 d7bd d587 a3bc 187f ad3c 5461 663e
000001d0: 568e e6bb 3ff6 bf3e 5738 d43d 2dc9 d9bd
000001e0: 3194 5b3e 4fc9 5cbd 897c 053c 67a2 513d
000001f0: 438d 40bc 27f3 aa3e 6ba3 c1bc 6b56 e03e
0.2633898 0.12167407 0.06817746 -0.1518991 0.01629568 0.2055356 -0.012432785 -0.014764146
-0.013472853 0.055120356 0.26050204 0.29356322 0.030231047 -0.08696212 -0.038374383 0.079200484
0.27999455 -0.023351079 -0.100810826 0.2466195 0.20575795 0.05329176 -0.13922223 0.29337573
0.06737222 0.250162 -0.03094098 -0.038233466 0.28626353 0.28940284 0.032349456 -0.069458924
-0.029914105 0.3566921 -0.024481608 -0.075594544 0.04861819 -0.024018575 0.23978782 0.014965855
0.32621822 0.008538017 0.09698609 -0.0153396195 0.071898006 0.05482749 -0.066667125 -0.07006744
0.029651377 0.31205642 0.07119537 0.23027709 0.21374264 -0.032493617 0.0461755 0.34716853
-0.073936634 0.02233719 0.055347245 -0.075243264 -0.028791059 0.026991006 -0.046639875 -0.0015819678
0.12522961 -0.015550271 0.36410975 -0.09607076 0.24720079 -0.035712976 0.39601547 -0.15312123
-0.007567911 0.2468572 -0.042274166 0.32070255 0.30036068 0.06808535 -0.11453558 -0.04483015
-0.118881516 -0.0020725823 0.059330404 0.0878165 0.0074066096 0.289829 0.17927572 -0.052225024
-0.08821181 -0.07665735 0.01720956 -0.03419332 0.012877128 0.15505974 -0.07352955 -0.0074721472
0.07522805 0.098123305 -0.016435588 0.28477117 0.27968156 -0.008077316 -0.0031497858 -0.07098081
0.020345902 0.035822175 0.03719544 -0.025562663 0.22118028 0.27832314 -0.07154214 -0.025420204
-0.10538387 -0.01996223 0.021178767 0.22498065 -0.0070360107 0.37492558 0.103623085 -0.10634074
0.2144325 -0.05390292 0.008147367 0.05118027 -0.011752429 0.33388636 -0.023637494 0.43815932

layer3.weight f4 [2, 128]
00000000: 3e31 bb3e ac38 0c3e ba1c 17be 67ce 1cbe
00000010: b76b 5abd 9842 db3e 90ad 79bd 207b fbbc
00000020: 2c89 46be df04 ae3e a00c be3e 657b eb3e
00000030: 574d 683e 0a95 62be 5686 29bd d8a9 833e
00000040: f36e 743e ab0d 513d f7d4 28bf 359e cd3e
00000050: 7c98 ab3e 05ab 76be 9e73 73be 39d7 a53e
00000060: 342e e4bb 9c55 e73e 25ff 8e3e f854 af3e
00000070: 345c b53e 889f d93e 12d4 a73e df36 9abd
00000080: f806 a33e d9e8 993e c221 f0bc 57c2 8ebd
00000090: 958e 4e3e 0f5e b93e 75cb d83e e2d5 56be
000000a0: f75e d53e fb86 b53e 2cab bc3e a048 49bd
000000b0: 6312 793e c166 94bd 7a10 6b3d 8784 12be
000000c0: 71ab a0be 6d5c d43e 3955 993e 9265 bb3e
000000d0: 3e9e df3e c0b0 a33e dc03 8bbd 2692 953e
000000e0: 98fc 4ebd 3a25 a63e 7415 923e df01 6cbd
000000f0: 1e09 3b3e 3a09 cf3e 8ddf 9a3d bfa0 a9be
00000100: b633 a53e 5c1f 88bd 5da7 893e 1a4f 87bd
00000110: faef b73e f7fc abbc bea5 ab3e 8401 11bf
00000120: bc4e 8e39 3bb9 a63e 489a 133d 5e5e b63e
00000130: eb55 863e 5f66 af3e 356b 8cbe c1e5 43bd
00000140: cde1 dfbe 12f5 b53e 4140 a63e 21a7 893e
00000150: d805 723e da8a e83e a69b 933e c383 a6be
00000160: 7d69 f5bd ddee f8be c097 0bbe 5acf af3e
00000170: 85fd 98bd 2b33 bd3e cc33 7d3d cc78 953e
00000180: a89d 9e3e 2ae0 bb3e 622f b83e 376a b53e
00000190: 02ec b63e 1eb0 63bc a36e 62be 7f8c 9d3d
000001a0: 57a7 ac3e 94b9 a53e 9123 e0bd 193e 30be
000001b0: 2c58 a73e c541 a73e 9df8 31be 075d c13e
000001c0: 25ed 9bbe 86fa 803d fc30 b93e 223c a23e
000001d0: 987c a73e 436c b93e f799 923e 12c4 cabe
000001e0: 0c43 c73e a754 0abd 4f88 af3c d53a c73e
000001f0: a223 a73e a19f ba3e bc11 e0bb 76d2 bf3e
00000200: 1dd6 bf3e d962 0d3f 5575 6fbd 0c72 6abe
00000210: 433d a7bc c267 ac3e 9e2d 82bd 4ccb 1dbd
00000220: 9262 bdbe b74c a93e a427 b63e 470d 8b3e
00000230: 1697 863e a973 d7be cf1f a53e 8415 be3e
00000240: edc5 e13e 436d 2a3d ef21 833e 6c64 8f3e
00000250: 5309 d83e ca04 8f3d 0b03 28be 5e9f da3e
00000260: 176c 6c3d 219c b73e 0f97 b43e bd25 9f3e
00000270: 19a3 d23e 45ea d23e a59e b43e 1296 debc
00000280: 7d29 a83e 050f a83e 4467 36be 5e18 223d
00000290: 847a 94be 3ad0 9f3e 99e3 ca3e 3346 90be
000002a0: d643 883e d94f a03e 84cd 833e be16 2dbe
000002b0: 685d a63e 0b65 89bc 6464 4dbd 8fd9 87be
000002c0: 363f 8a3e 46e2 e03e a7d3 cc3e 8f3d c73e
000002d0: 5fe5 be3e 4197 b53e 2d57 3ebd b64e bc3e
000002e0: c84c 84bd 3143 8f3e af8d bb3e f786 1fbd
000002f0: 42e0 26be 2d07 c63e efac 433d e567 56be
00000300: 2630 283e f104 86bb 9bf5 da3e 9f1d 88be
00000310: 457f d63e 2db7 d53c 1633 e63e f830 cfbe
00000320: cfc5 73bd 8fb0 c93e ce07 2c3d 4d5d b33e
00000330: 932b da3e 0803 9cbb b707 9cbe 2ca1 fcbb
00000340: 419c bebe 2b9b b53e 3adc ae3e 76c0 b73e
00000350: 5bb4 a23e bb84 883e deaf c93e 258c 8bbe
00000360: 5654 71be e68c a83e 9083 f33b f6c1 663e
00000370: 8840 7b3d b023 5d3e 9bd3 85be c510 fa3d
00000380: 48ba a43e 7c54 943e 933f c73e 3cce ba3e
00000390: 5727 c63e 5393 edbd fd27 8b3d f76d 6f3d
000003a0: e6a0 b83e 79ec 3c3e 134c 7fbc eeb3 8ebe
000003b0: 9432 df3e 0127 a73e a839 54be 1de0 a63e
000003c0: a41d 1cbe 7ea5 cc3c 30c7 a43e 8e1f 8e3e
000003d0: 7ead 8d3e 68a5 743e f63e 9d3e 2b07 82be
000003e0: f7ca f53e 6377 1d3d 4d07 85bd 9274 c33e
000003f0: 8f43 b33e 7e5a 4f3e ff85 9dbe e2cf bb3e
0.36561006 0.13693494 -0.14757052 -0.15313111 -0.05332538 0.42824244 -0.060956538 -0.030698359
-0.19388264 0.3398809 0.37119007 0.4599258 0.22685753 -0.22127166 -0.04138788 0.25715518
0.23870449 0.051038425 -0.6594996 0.40159765 0.33514774 -0.24088676 -0.23774573 0.32390764
-0.0069635157 0.45182502 0.27929035 0.34244514 0.35421908 0.42504525 0.32778984 -0.07529997
0.31841254 0.3006046 -0.029312972 -0.06970661 0.20171578 0.36204574 0.42342725 -0.20980027
0.41674015 0.35454544 0.36849344 -0.049141526 0.2432342 -0.07246161 0.05738876 -0.14308368
-0.313808 0.41476765 0.29947832 0.3660093 0.43675417 0.31970787 -0.067878455 0.29213065
-0.05053386 0.32450277 0.28531992 -0.057618972 0.18265197 0.40436727 0.0756217 -0.33130452
0.32266015 -0.06646606 0.268855 -0.06606884 0.35925275 -0.020994646 0.3352489 -0.5664294
0.00027143012 0.32563195 0.036035806 0.3561887 0.26237425 0.3425779 -0.27425542 -0.047826532
-0.4372696 0.35538536 0.32470897 0.26885322 0.23635042 0.45418435 0.28829688 -0.325224
-0.11983011 -0.48619738 -0.13632107 0.34337884 -0.0747023 0.369531 0.061816975 0.29193723
0.30979657 0.3669446 0.3597365 0.35432598 0.35726935 -0.01389697 -0.22112517 0.07692813
0.3372142 0.32368147 -0.10944284 -0.17211188 0.32684457 0.32667366 -0.17379995 0.37766287
-0.30454364 0.062977836 0.36170185 0.31686503 0.32712245 0.3621541 0.2863309 -0.39602715
0.3891834 -0.033772137 0.021427302 0.38912073 0.32644373 0.36449912 -0.0068380516 0.37465256
0.37468043 0.55228955 -0.058461506 -0.22895068 -0.020414954 0.3367291 -0.06356357 -0.038523957
-0.36989266 0.3306634 0.35577118 0.27158567 0.26287144 -0.4208043 0.3225083 0.3712579
0.44096318 0.041608106 0.25611827 0.28006303 0.42194614 0.06983335 -0.16407411 0.42699713
0.05772027 0.35861304 0.352715 0.3108348 0.4114006 0.41194358 0.35277286 -0.027171168
0.32844153 0.3282396 -0.1781283 0.03957402 -0.28999722 0.31213552 0.39626768 -0.28178558
0.26614255 0.3131092 0.25742733 -0.16903207 0.32493138 -0.016771814 -0.050144568 -0.26533172
0.2700135 0.43922633 0.40005228 0.38914153 0.3728437 0.3546696 -0.046469856 0.36778802
-0.06459957 0.2798095 0.36631534 -0.038947072 -0.16296485 0.3867735 0.047772344 -0.2093807
0.16424617 -0.0040899445 0.42765507 -0.265851 0.41893974 0.026088322 0.4496085 -0.40467048
-0.059514817 0.39392516 0.04199963 0.3503212 0.4261137 -0.0047611035 -0.30474636 -0.007709643
-0.37228587 0.35469946 0.34152395 0.35889024 0.31778225 0.26663765 0.3939199 -0.2725536
-0.23567328 0.32919997 0.007431455 0.22534928 0.06134084 0.21595645 -0.26138005 0.1221023
0.3217337 0.28970706 0.3891569 0.3648547 0.3870189 -0.116003655 0.067947365 0.05845448
0.36060256 0.18449582 -0.015582102 -0.2787165 0.43593276 0.32646945 -0.20725119 0.3259286
-0.15245682 0.024981257 0.32183218 0.2775845 0.27671427 0.23891222 0.30712098 -0.25396094
0.48006412 0.038443934 -0.06495533 0.38174874 0.3501248 0.20249364 -0.30766293 0.3668204

layer3.bias f4 [2]
00000000: 9a3a cabc 9e62 af3c
-0.024686147 0.021409329
